…
. note:: As per the example above, an __init__() call to the parent class must be made before assignment on the child.\n:ivar training: Boolean represents whether this module is in training or evaluation mode. :vartype training: bool*\n\nsource\n\n\nget_darknet19\n\n get_darknet19 (conv=&lt;class '__main__.ConvBlock'&gt;,\n                pool=MaxPool2d(kernel_size=2, stride=2, padding=0,\n                dilation=1, ceil_mode=False))\n\n\nhead = nn.Sequential(\n    ConvBlock(1024, 200, ks=1),\n    nn.AdaptiveAvgPool2d(1),\n    nn.Flatten()\n)\nhead\n\nSequential(\n  (0): ConvBlock(\n    (conv): Conv2d(1024, 200, kernel_size=(1, 1), stride=(1, 1))\n    (norm): BatchNorm2d(200, eps=1e-05, momentum=0.1, affine=True, track_running_stats=True)\n    (act): LeakyReLU(negative_slope=0.1)\n  )\n  (1): AdaptiveAvgPool2d(output_size=1)\n  (2): Flatten(start_dim=1, end_dim=-1)\n)\n\n\n\nget_darknet19()+head\n\nSequential(\n  (0): ConvBlock(\n    (conv): Conv2d(3, 32, kernel_size=(3, 3), stride=(1, 1), padding=(1, 1))\n    (norm): BatchNorm2d(32, eps=1e-05, momentum=0.1, affine=True, track_running_stats=True)\n    (act): LeakyReLU(negative_slope=0.1)\n  )\n  (1): MaxPool2d(kernel_size=2, stride=2, padding=0, dilation=1, ceil_mode=False)\n  (2): ConvBlock(\n    (conv): Conv2d(32, 64, kernel_size=(3, 3), stride=(1, 1), padding=(1, 1))\n    (norm): BatchNorm2d(64, eps=1e-05, momentum=0.1, affine=True, track_running_stats=True)\n    (act): LeakyReLU(negative_slope=0.1)\n  )\n  (3): MaxPool2d(kernel_size=2, stride=2, padding=0, dilation=1, ceil_mode=False)\n  (4): ConvBlock(\n    (conv): Conv2d(64, 128, kernel_size=(3, 3), stride=(1, 1), padding=(1, 1))\n    (norm): BatchNorm2d(128, eps=1e-05, momentum=0.1, affine=True, track_running_stats=True)\n    (act): LeakyReLU(negative_slope=0.1)\n  )\n  (5): ConvBlock(\n    (conv): Conv2d(128, 64, kernel_size=(1, 1), stride=(1, 1))\n    (norm): BatchNorm2d(64, eps=1e-05, momentum=0.1, affine=True, track_running_stats=True)\n    (act): LeakyReLU(negative_slope=0.1)\n  )\n  (6): ConvBlock(\n    (conv): Conv2d(64, 128, kernel_size=(3, 3), stride=(1, 1), padding=(1, 1))\n    (norm): BatchNorm2d(128, eps=1e-05, momentum=0.1, affine=True, track_running_stats=True)\n    (act): LeakyReLU(negative_slope=0.1)\n  )\n  (7): MaxPool2d(kernel_size=2, stride=2, padding=0, dilation=1, ceil_mode=False)\n  (8): ConvBlock(\n    (conv): Conv2d(128, 256, kernel_size=(3, 3), stride=(1, 1), padding=(1, 1))\n    (norm): BatchNorm2d(256, eps=1e-05, momentum=0.1, affine=True, track_running_stats=True)\n    (act): LeakyReLU(negative_slope=0.1)\n  )\n  (9): ConvBlock(\n    (conv): Conv2d(256, 128, kernel_size=(1, 1), stride=(1, 1))\n    (norm): BatchNorm2d(128, eps=1e-05, momentum=0.1, affine=True, track_running_stats=True)\n    (act): LeakyReLU(negative_slope=0.1)\n  )\n  (10): ConvBlock(\n    (conv): Conv2d(128, 256, kernel_size=(3, 3), stride=(1, 1), padding=(1, 1))\n    (norm): BatchNorm2d(256, eps=1e-05, momentum=0.1, affine=True, track_running_stats=True)\n    (act): LeakyReLU(negative_slope=0.1)\n  )\n  (11): MaxPool2d(kernel_size=2, stride=2, padding=0, dilation=1, ceil_mode=False)\n  (12): ConvBlock(\n    (conv): Conv2d(256, 512, kernel_size=(3, 3), stride=(1, 1), padding=(1, 1))\n    (norm): BatchNorm2d(512, eps=1e-05, momentum=0.1, affine=True, track_running_stats=True)\n    (act): LeakyReLU(negative_slope=0.1)\n  )\n  (13): ConvBlock(\n    (conv): Conv2d(512, 256, kernel_size=(1, 1), stride=(1, 1))\n    (norm): BatchNorm2d(256, eps=1e-05, momentum=0.1, affine=True, track_running_stats=True)\n    (act): LeakyReLU(negative_slope=0.1)\n  )\n  (14): ConvBlock(\n    (conv): Conv2d(256, 512, kernel_size=(3, 3), stride=(1, 1), padding=(1, 1))\n    (norm): BatchNorm2d(512, eps=1e-05, momentum=0.1, affine=True, track_running_stats=True)\n    (act): LeakyReLU(negative_slope=0.1)\n  )\n  (15): ConvBlock(\n    (conv): Conv2d(512, 256, kernel_size=(1, 1), stride=(1, 1))\n    (norm): BatchNorm2d(256, eps=1e-05, momentum=0.1, affine=True, track_running_stats=True)\n    (act): LeakyReLU(negative_slope=0.1)\n  )\n  (16): ConvBlock(\n    (conv): Conv2d(256, 512, kernel_size=(3, 3), stride=(1, 1), padding=(1, 1))\n    (norm): BatchNorm2d(512, eps=1e-05, momentum=0.1, affine=True, track_running_stats=True)\n    (act): LeakyReLU(negative_slope=0.1)\n  )\n  (17): MaxPool2d(kernel_size=2, stride=2, padding=0, dilation=1, ceil_mode=False)\n  (18): ConvBlock(\n    (conv): Conv2d(512, 1024, kernel_size=(3, 3), stride=(1, 1), padding=(1, 1))\n    (norm): BatchNorm2d(1024, eps=1e-05, momentum=0.1, affine=True, track_running_stats=True)\n    (act): LeakyReLU(negative_slope=0.1)\n  )\n  (19): ConvBlock(\n    (conv): Conv2d(1024, 512, kernel_size=(1, 1), stride=(1, 1))\n    (norm): BatchNorm2d(512, eps=1e-05, momentum=0.1, affine=True, track_running_stats=True)\n    (act): LeakyReLU(negative_slope=0.1)\n  )\n  (20): ConvBlock(\n    (conv): Conv2d(512, 1024, kernel_size=(3, 3), stride=(1, 1), padding=(1, 1))\n    (norm): BatchNorm2d(1024, eps=1e-05, momentum=0.1, affine=True, track_running_stats=True)\n    (act): LeakyReLU(negative_slope=0.1)\n  )\n  (21): ConvBlock(\n    (conv): Conv2d(1024, 512, kernel_size=(1, 1), stride=(1, 1))\n    (norm): BatchNorm2d(512, eps=1e-05, momentum=0.1, affine=True, track_running_stats=True)\n    (act): LeakyReLU(negative_slope=0.1)\n  )\n  (22): ConvBlock(\n    (conv): Conv2d(512, 1024, kernel_size=(3, 3), stride=(1, 1), padding=(1, 1))\n    (norm): BatchNorm2d(1024, eps=1e-05, momentum=0.1, affine=True, track_running_stats=True)\n    (act): LeakyReLU(negative_slope=0.1)\n  )\n  (23): ConvBlock(\n    (conv): Conv2d(1024, 200, kernel_size=(1, 1), stride=(1, 1))\n    (norm): BatchNorm2d(200, eps=1e-05, momentum=0.1, affine=True, track_running_stats=True)\n    (act): LeakyReLU(negative_slope=0.1)\n  )\n  (24): AdaptiveAvgPool2d(output_size=1)\n  (25): Flatten(start_dim=1, end_dim=-1)\n)\n\n\n\nlearn = Learner(get_darknet19()+head, dls, loss_fn, lr=0.3, cbs=cbs)\nlearn.summary()\n\n\n\n\n\n\n    \n      \n      0.00% [0/1 00:00&lt;?]\n    \n    \n\n\n    \n      \n      0.00% [0/15
…
ule):\n    def __init__(self):\n        super().__init__()\n        self.model = YOLO(\"yolo11n-obb.pt\").model\n        # Keep the original loss\n        self.loss_fn = self.model.loss\n        \n    def forward(self, x):\n        return self.model(x)\n    \n    def train(self, mode=True):\n        \"\"\"Override train method\"\"\"\n        super().train(mode)\n        if hasattr(self.model, 'training'):\n            self.model.training = mode\n        return self\n\n\nmodel = YOLOWrapper()\nmodel\n\nYOLOWrapper(\n  (model): OBBModel(\n    (model): Sequential(\n      (0): Conv(\n        (conv): Conv2d(3, 16, kernel_size=(3, 3), stride=(2, 2), padding=(1, 1), bias=False)\n        (bn): BatchNorm2d(16, eps=0.001, momentum=0.03, affine=True, track_running_stats=True)\n        (act): SiLU(inplace=True)\n      )\n      (1): Conv(\n        (conv): Conv2d(16, 32, kernel_size=(3, 3), stride=(2, 2), padding=(1, 1), bias=False)\n        (bn): BatchNorm2d(32, eps=0.001, momentum=0.03, affine=True, track_running_stats=True)\n        (act): SiLU(inplace=True)\n      )\n      (2): C3k2(\n        (cv1): Conv(\n          (conv): Conv2d(32, 32, kernel_size=(1, 1), stride=(1, 1), bias=False)\n          (bn): BatchNorm2d(32, eps=0.001, momentum=0.03, affine=True, track_running_stats=True)\n          (act): SiLU(inplace=True)\n        )\n        (cv2): Conv(\n          (conv): Conv2d(48, 64, kernel_size=(1, 1), stride=(1, 1), bias=False)\n          (bn): BatchNorm2d(64, eps=0.001, momentum=0.03, affine=True, track_running_stats=True)\n          (act): SiLU(inplace=True)\n        )\n        (m): ModuleList(\n          (0): Bottleneck(\n            (cv1): Conv(\n              (conv): Conv2d(16, 8, kernel_size=(3, 3), stride=(1, 1), padding=(1, 1), bias=False)\n              (bn): BatchNorm2d(8, eps=0.001, momentum=0.03, affine=True, track_running_stats=True)\n              (act): SiLU(inplace=True)\n            )\n            (cv2): Conv(\n              (conv): Conv2d(8, 16, kernel_size=(3, 3), stride=(1, 1), padding=(1, 1), bias=False)\n              (bn): BatchNorm2d(16, eps=0.001, momentum=0.03, affine=True, track_running_stats=True)\n              (act): SiLU(inplace=True)\n            )\n          )\n        )\n      )\n      (3): Conv(\n        (conv): Conv2d(64, 64, kernel_size=(3, 3), stride=(2, 2), padding=(1, 1), bias=False)\n        (bn): BatchNorm2d(64, eps=0.001, momentum=0.03, affine=True, track_running_stats=True)\n        (act): SiLU(inplace=True)\n      )\n      (4): C3k2(\n        (cv1): Conv(\n          (conv): Conv2d(64, 64, kernel_size=(1, 1), stride=(1, 1), bias=False)\n          (bn): BatchNorm2d(64, eps=0.001, momentum=0.03, affine=True, track_running_stats=True)\n          (act): SiLU(inplace=True)\n        )\n        (cv2): Conv(\n          (conv): Conv2d(96, 128, kernel_size=(1, 1), stride=(1, 1), bias=False)\n          (bn): BatchNorm2d(128, eps=0.001, momentum=0.03, affine=True, track_running_stats=True)\n          (act): SiLU(inplace=True)\n        )\n        (m): ModuleList(\n          (0): Bottleneck(\n            (cv1): Conv(\n              (conv): Conv2d(32, 16, kernel_size=(3, 3), stride=(1, 1), padding=(1, 1), bias=False)\n              (bn): BatchNorm2d(16, eps=0.001, momentum=0.03, affine=True, track_running_stats=True)\n              (act): SiLU(inplace=True)\n            )\n            (cv2): Conv(\n              (conv): Conv2d(16, 32, kernel_size=(3, 3), stride=(1, 1), padding=(1, 1), bias=False)\n              (bn): BatchNorm2d(32, eps=0.001, momentum=0.03, affine=True, track_running_stats=True)\n              (act): SiLU(inplace=True)\n            )\n          )\n        )\n      )\n      (5): Conv(\n        (conv): Conv2d(128, 128, kernel_size=(3, 3), stride=(2, 2), padding=(1, 1), bias=False)\n        (bn): BatchNorm2d(128, eps=0.001, momentum=0.03, affine=True, track_running_stats=True)\n        (act): SiLU(inplace=True)\n      )\n      (6): C3k2(\n        (cv1): Conv(\n          (conv): Conv2d(128, 128, kernel_size=(1, 1), stride=(1, 1), bias=False)\n          (bn): BatchNorm2d(128, eps=0.001, momentum=0.03, affine=True, track_running_stats=True)\n          (act): SiLU(inplace=True)\n        )\n        (cv2): Conv(\n          (conv): Conv2d(192, 128, kernel_size=(1, 1), stride=(1, 1), bias=False)\n          (bn): BatchNorm2d(128, eps=0.001, momentum=0.03, affine=True, track_running_stats=True)\n          (act): SiLU(inplace=True)\n        )\n        (m): ModuleList(\n          (0): C3k(\n            (cv1): Conv(\n              (conv): Conv2d(64, 32, kernel_size=(1, 1), stride=(1, 1), bias=False)\n              (bn): BatchNorm2d(32, eps=0.001, momentum=0.03, affine=True, track_running_stats=True)\n              (act): SiLU(inplace=True)\n            )\n            (cv2): Conv(\n              (conv): Conv2d(64, 32, kernel_size=(1, 1), stride=(1, 1), bias=False)\n              (bn): BatchNorm2d(32, eps=0.001, momentum=0.03, affine=True, track_running_stats=True)\n              (act): SiLU(inplace=True)\n            )\n            (cv3): Conv(\n              (conv): Conv2d(64, 64, kernel_size=(1, 1), stride=(1, 1), bias=False)\n              (bn): BatchNorm2d(64, eps=0.001, momentum=0.03, affine=True, track_running_stats=True)\n              (act): SiLU(inplace=True)\n            )\n            (m): Sequential(\n              (0): Bottleneck(\n                (cv1): Conv(\n                  (conv): Conv2d(32, 32, kernel_size=(3, 3), stride=(1, 1), padding=(1, 1), bias=False)\n                  (bn): BatchNorm2d(32, eps=0.001, momentum=0.03, affine=True, track_running_stats=True)\n                  (act): SiLU(inplace=True)\n                )\n                (cv2): Conv(\n                  (conv): Conv2d(32, 32, kernel_size=(3, 3), stride=(1, 1), padding=(1, 1), bias=False)\n                  (bn): BatchNorm2d(32, eps=0.001, momentum=0.03, affine=True, track_running_stats=True)\n                  (act): SiLU(inplace=True)\n                )\n              )\n              (1): Bottleneck(\n                (cv1): Conv(\n                  (conv): Conv2d(32, 32, kernel_size=(3, 3), stride=(1, 1), padding=(1, 1), bias=False)\n                  (bn): BatchNorm2d(32, eps=0.001, momentum=0.03, affine=True, track_running_stats=True)\n                  (act): SiLU(inplace=True)\n                )\n                (cv2): Conv(\n                  (conv): Conv2d(32, 32, kernel_size=(3, 3), stride=(1, 1), padding=(1, 1), bias=False)\n                  (bn): BatchNorm2d(32, eps=0.001, momentum=0.03, affine=True, track_running_stats=True)\n                  (act): SiLU(inplace=True)\n                )\n              )\n            )\n          )\n        )\n      )\n      (7): Conv(\n        (conv): Conv2d(128, 256, kernel_size=(3, 3), stride=(2, 2), padding=(1, 1), bias=False)\n        (bn): BatchNorm2d(256, eps=0.001, momentum=0.03, affine=True, track_running_stats=True)\n        (act): SiLU(inplace=True)\n      )\n      (8): C3k2(\n        (cv1): Conv(\n          (conv): Conv2d(256, 256, kernel_size=(1, 1), stride=(1, 1), bias=False)\n          (bn): BatchNorm2d(256, eps=0.001, momentum=0.03, affine=True, track_running_stats=True)\n          (act): SiLU(inplace=True)\n        )\n        (cv2): Conv(\n          (conv): Conv2d(384, 256, kernel_size=(1, 1), stride=(1, 1), bias=False)\n          (bn): BatchNorm2d(256, eps=0.001, momentum=0.03, affine=True, track_running_stats=True)\n          (act): SiLU(inplace=True)\n        )\n        (m): ModuleList(\n          (0): C3k(\n            (cv1): Conv(\n              (conv): Conv2d(128, 64, kernel_size=(1, 1), stride=(1, 1), bias=False)\n              (bn): BatchNorm2d(64, eps=0.001, momentum=0.03, affine=True, track_running_stats=True)\n              (act): SiLU(inplace=True)\n            )\n            (cv2): Conv(\n              (conv): Conv2d(128, 64, kernel_size=(1, 1), stride=(1, 1), bias=False)\n              (bn): BatchNorm2d(64, eps=0.001, momentum=0.03, affine=True, track_running_stats=True)\n              (act): SiLU(inplace=True)\n            )\n            (cv3): Conv(\n              (conv): Conv2d(128, 128, kernel_size=(1, 1), stride=(1, 1), bias=False)\n              (bn): BatchNorm2d(128, eps=0.001, momentum=0.03, affine=True, track_running_stats=True)\n              (act): SiLU(inplace=True)\n            )\n            (m): Sequential(\n              (0): Bottleneck(\n                (cv1): Conv(\n                  (conv): Conv2d(64, 64, kernel_size=(3, 3), stride=(1, 1), padding=(1, 1), bias=False)\n                  (bn): BatchNorm2d(64, eps=0.001, momentum=0.03, affine=True, track_running_stats=True)\n                  (act): SiLU(inplace=True)\n                )\n                (cv2): Conv(\n                  (conv): Conv2d(64, 64, kernel_size=(3, 3), stride=(1, 1), padding=(1, 1), bias=False)\n                  (bn): BatchNorm2d(64, eps=0.001, momentum=0.03, affine=True, track_running_stats=True)\n                  (act): SiLU(inplace=True)\n                )\n              )\n              (1): Bottleneck(\n                (cv1): Conv(\n                  (conv): Conv2d(64, 64, kernel_size=(3, 3), stride=(1, 1), padding=(1, 1), bias=False)\n                  (bn): BatchNorm2d(64, eps=0.001, momentum=0.03, affine=True, track_running_stats=True)\n                  (act): SiLU(inplace=True)\n                )\n                (cv2): Conv(\n                  (conv): Conv2d(64, 64, kernel_size=(3, 3), stride=(1, 1), padding=(1, 1), bias=False)\n                  (bn): BatchNorm2d(64, eps=0.001, momentum=0.03, affine=True, track_running_stats=True)\n                  (act): SiLU(inplace=True)\n                )\n              )\n            )\n          )\n        )\n      )\n      (9): SPPF(\n        (cv1): Conv(\n          (conv): Conv2d(256, 128, kernel_size=(1, 1), stride=(1, 1), bias=False)\n          (bn): BatchNorm2d(128, eps=0.001, momentum=0.03, affine=True, track_running_stats=True)\n          (act): SiLU(inplace=True)\n        )\n        (cv2): Conv(\n          (conv): Conv2d(512, 256, kernel_size=(1, 1), stride=(1, 1), bias=False)\n          (bn): BatchNorm2d(256, eps=0.001, momentum=0.03, affine=True, track_running_stats=True)\n          (act): SiLU(inplace=True)\n        )\n        (m): MaxPool2d(kernel_size=5, stride=1, padding=2, dilation=1, ceil_mode=False)\n      )\n      (10): C2PSA(\n        (cv1): Conv(\n          (conv): Conv2d(256, 256, kernel_size=(1, 1), stride=(1, 1), bias=False)\n          (bn): BatchNorm2d(256, eps=0.001, momentum=0.03, affine=True, track_running_stats=True)\n          (act): SiLU(inplace=True)\n        )\n        (cv2): Conv(\n          (conv): Conv2d(256, 256, kernel_size=(1, 1), stride=(1, 1), bias=False)\n          (bn): BatchNorm2d(256, eps=0.001, momentum=0.03, affine=True, track_running_stats=True)\n          (act): SiLU(inplace=True)\n        )\n        (m): Sequential(\n          (0): PSABlock(\n            (attn): Attention(\n              (qkv): Conv(\n                (conv): Conv2d(128, 256, kernel_size=(1, 1), stride=(1, 1), bias=False)\n                (bn): BatchNorm2d(256, eps=0.001, momentum=0.03, affine=True, track_running_stats=True)\n                (act): Identity()\n              )\n              (proj): Conv(\n                (conv): Conv2d(128, 128, kernel_size=(1, 1), stride=(1, 1), bias=False)\n                (bn): BatchNorm2d(128, eps=0.001, momentum=0.03, affine=True, track_running_stats=True)\n                (act): Identity()\n              )\n              (pe): Conv(\n                (conv): Conv2d(128, 128, kernel_size=(3, 3), stride=(1, 1), padding=(1, 1), groups=128, bias=False)\n                (bn): BatchNorm2d(128, eps=0.001, momentum=0.03, affine=True, track_running_stats=True)\n                (act): Identity()\n              )\n            )\n            (ffn): Sequential(\n              (0): Conv(\n                (conv): Conv2d(128, 256, kernel_size=(1, 1), stride=(1, 1), bias=False)\n                (bn): BatchNorm2d(256, eps=0.001, momentum=0.03, affine=True, track_running_stats=True)\n                (act): SiLU(inplace=True)\n              )\n              (1): Conv(\n                (conv): Conv2d(256, 128, kernel_size=(1, 1), stride=(1, 1), bias=False)\n                (bn): BatchNorm2d(128, eps=0.001, momentum=0.03, affine=True, track_running_stats=True)\n                (act): Identity()\n              )\n            )\n          )\n        )\n      )\n      (11): Upsample(scale_factor=2.0, mode='nearest')\n      (12): Concat()\n      (13): C3k2(\n        (cv1): Conv(\n          (conv): Conv2d(384, 128, kernel_size=(1, 1), stride=(1, 1), bias=False)\n          (bn): BatchNorm2d(128, eps=0.001, momentum=0.03, affine=True, track_running_stats=True)\n          (act): SiLU(inplace=True)\n        )\n        (cv2): Conv(\n          (conv): Conv2d(192, 128, kernel_size=(1, 1), stride=(1, 1), bias=False)\n          (bn): BatchNorm2d(128, eps=0.001, momentum=0.03, affine=True, track_running_stats=True)\n          (act): SiLU(inplace=True)\n        )\n        (m): ModuleList(\n          (0): Bottleneck(\n            (cv1): Conv(\n              (conv): Conv2d(64, 32, kernel_size=(3, 3), stride=(1, 1), padding=(1, 1), bias=False)\n              (bn): BatchNorm2d(32, eps=0.001, momentum=0.03, affine=True, track_running_stats=True)\n              (act): SiLU(inplace=True)\n            )\n            (cv2): Conv(\n              (conv): Conv2d(32, 64, kernel_size=(3, 3), stride=(1, 1), padding=(1, 1), bias=False)\n              (bn): BatchNorm2d(64, eps=0.001, momentum=0.03, affine=True, track_running_stats=True)\n              (act): SiLU(inplace=True)\n            )\n          )\n        )\n      )\n      (14): Upsample(scale_factor=2.0, mode='nearest')\n      (15): Concat()\n      (16): C3k2(\n        (cv1): Conv(\n          (conv): Conv2d(256, 64, kernel_size=(1, 1), stride=(1, 1), bias=False)\n          (bn): BatchNorm2d(64, eps=0.001, momentum=0.03, affine=True, track_running_stats=True)\n          (act): SiLU(inplace=True)\n        )\n        (cv2): Conv(\n          (conv): Conv2d(96, 64, kernel_size=(1, 1), stride=(1, 1), bias=False)\n          (bn): BatchNorm2d(64, eps=0.001, momentum=0.03, affine=True, track_running_stats=True)\n          (act): SiLU(inplace=True)\n        )\n        (m): ModuleList(\n          (0): Bottleneck(\n            (cv1): Conv(\n              (conv): Conv2d(32, 16, kernel_size=(3, 3), stride=(1, 1), padding=(1, 1), bias=False)\n              (bn): BatchNorm2d(16, eps=0.001, momentum=0.03, affine=True, track_running_stats=True)\n              (act): SiLU(inplace=True)\n            )\n            (cv2): Conv(\n              (conv): Conv2d(16, 32, kernel_size=(3, 3), stride=(1, 1), padding=(1, 1), bias=False)\n              (bn): BatchNorm2d(32, eps=0.001, momentum=0.03, affine=True, track_running_stats=True)\n              (act): SiLU(inplace=True)\n            )\n          )\n        )\n      )\n      (17): Conv(\n        (conv): Conv2d(64, 64, kernel_size=(3, 3), stride=(2, 2), padding=(1, 1), bias=False)\n        (bn): BatchNorm2d(64, eps=0.001, momentum=0.03, affine=True, track_running_stats=True)\n        (act): SiLU(inplace=True)\n      )\n      (18): Concat()\n      (19): C3k2(\n        (cv1): Conv(\n          (conv): Conv2d(192, 128, kernel_size=(1, 1), stride=(1, 1), bias=False)\n          (bn): BatchNorm2d(128, eps=0.001, momentum=0.03, affine=True, track_running_stats=True)\n          (act): SiLU(inplace=True)\n        )\n        (cv2): Conv(\n          (conv): Conv2d(192, 128, kernel_size=(1, 1), stride=(1, 1), bias=False)\n          (bn): BatchNorm2d(128, eps=0.001, momentum=0.03, affine=True, track_running_stats=True)\n          (act): SiLU(inplace=True)\n        )\n        (m): ModuleList(\n          (0): Bottleneck(\n            (cv1): Conv(\n              (conv): Conv2d(64, 32, kernel_size=(3, 3), stride=(1, 1), padding=(1, 1), bias=False)\n              (bn): BatchNorm2d(32, eps=0.001, momentum=0.03, affine=True, track_running_stats=True)\n              (act): SiLU(inplace=True)\n            )\n            (cv2): Conv(\n              (conv): Conv2d(32, 64, kernel_size=(3, 3), stride=(1, 1), padding=(1, 1), bias=False)\n              (bn): BatchNorm2d(64, eps=0.001, momentum=0.03, affine=True, track_running_stats=True)\n              (act): SiLU(inplace=True)\n            )\n          )\n        )\n      )\n      (20): Conv(\n        (conv): Conv2d(128, 128, kernel_size=(3, 3), stride=(2, 2), padding=(1, 1), bias=False)\n        (bn): BatchNorm2d(128, eps=0.001, momentum=0.03, affine=True, track_running_stats=True)\n        (act): SiLU(inplace=True)\n      )\n      (21): Concat()\n      (22): C3k2(\n        (cv1): Conv(\n          (conv): Conv2d(384, 256, kernel_size=(1, 1), stride=(1, 1), bias=False)\n          (bn): BatchNorm2d(256, eps=0.001, momentum=0.03, affine=True, track_running_stats=True)\n          (act): SiLU(inplace=True)\n        )\n        (cv2): Conv(\n          (conv): Conv2d(384, 256, kernel_size=(1, 1), stride=(1, 1), bias=False)\n          (bn): BatchNorm2d(256, eps=0.001, momentum=0.03, affine=True, track_running_stats=True)\n          (act): SiLU(inplace=True)\n        )\n        (m): ModuleList(\n          (0): C3k(\n            (cv1): Conv(\n              (conv): Conv2d(128, 64, kernel_size=(1, 1), stride=(1, 1), bias=False)\n              (bn): BatchNorm2d(64, eps=0.001, momentum=0.03, affine=True, track_running_stats=True)\n              (act): SiLU(inplace=True)\n            )\n            (cv2): Conv(\n              (conv): Conv2d(128, 64, kernel_size=(1, 1), stride=(1, 1), bias=False)\n              (bn): BatchNorm2d(64, eps=0.001, momentum=0.03, affine=True, track_running_stats=True)\n              (act): SiLU(inplace=True)\n            )\n            (cv3): Conv(\n              (conv): Conv2d(128, 128, kernel_size=(1, 1), stride=(1, 1), bias=False)\n              (bn): BatchNorm2d(128, eps=0.001, momentum=0.03, affine=True, track_running_stats=True)\n              (act): SiLU(inplace=True)\n            )\n            (m): Sequential(\n              (0): Bottleneck(\n                (cv1): Conv(\n                  (conv): Conv2d(64, 64, kernel_size=(3, 3), stride=(1, 1), padding=(1, 1), bias=False)\n                  (bn): BatchNorm2d(64, eps=0.001, momentum=0.03, affine=True, track_running_stats=True)\n                  (act): SiLU(inplace=True)\n                )\n                (cv2): Conv(\n                  (conv): Conv2d(64, 64, kernel_size=(3, 3), stride=(1, 1), padding=(1, 1), bias=False)\n                  (bn): BatchNorm2d(64, eps=0.001, momentum=0.03, affine=True, track_running_stats=True)\n                  (act): SiLU(inplace=True)\n                )\n              )\n              (1): Bottleneck(\n                (cv1): Conv(\n                  (conv): Conv2d(64, 64, kernel_size=(3, 3), stride=(1, 1), padding=(1, 1), bias=False)\n                  (bn): BatchNorm2d(64, eps=0.001, momentum=0.03, affine=True, track_running_stats=True)\n                  (act): SiLU(inplace=True)\n                )\n                (cv2): Conv(\n                  (conv): Conv2d(64, 64, kernel_size=(3, 3), stride=(1, 1), padding=(1, 1), bias=False)\n                  (bn): BatchNorm2d(64, eps=0.001, momentum=0.03, affine=True, track_running_stats=True)\n                  (act): SiLU(inplace=True)\n                )\n              )\n            )\n          )\n        )\n      )\n      (23): OBB(\n        (cv2): ModuleList(\n          (0): Sequential(\n            (0): Conv(\n              (conv): Conv2d(64, 64, kernel_size=(3, 3), stride=(1, 1), padding=(1, 1), bias=False)\n              (bn): BatchNorm2d(64, eps=0.001, momentum=0.03, affine=True, track_running_stats=True)\n              (act): SiLU(inplace=True)\n            )\n            (1): Conv(\n              (conv): Conv2d(64, 64, kernel_size=(3, 3), stride=(1, 1), padding=(1, 1), bias=False)\n              (bn): BatchNorm2d(64, eps=0.001, momentum=0.03, affine=True, track_running_stats=True)\n              (act): SiLU(inplace=True)\n            )\n            (2): Conv2d(64, 64, kernel_size=(1, 1), stride=(1, 1))\n          )\n          (1): Sequential(\n            (0): Conv(\n              (conv): Conv2d(128, 64, kernel_size=(3, 3), stride=(1, 1), padding=(1, 1), bias=False)\n              (bn): BatchNorm2d(64, eps=0.001, momentum=0.03, affine=True, track_running_stats=True)\n              (act): SiLU(inplace=True)\n            )\n            (1): Conv(\n              (conv): Conv2d(64, 64, kernel_size=(3, 3), stride=(1, 1), padding=(1, 1), bias=False)\n              (bn): BatchNorm2d(64, eps=0.001, momentum=0.03, affine=True, track_running_stats=True)\n              (act): SiLU(inplace=True)\n            )\n            (2): Conv2d(64, 64, kernel_size=(1, 1), stride=(1, 1))\n          )\n          (2): Sequential(\n            (0): Conv(\n              (conv): Conv2d(256, 64, kernel_size=(3, 3), stride=(1, 1), padding=(1, 1), bias=False)\n              (bn): BatchNorm2d(64, eps=0.001, momentum=0.03, affine=True, track_running_stats=True)\n              (act): SiLU(inplace=True)\n            )\n            (1): Conv(\n              (conv): Conv2d(64, 64, kernel_size=(3, 3), stride=(1, 1), padding=(1, 1), bias=False)\n              (bn): BatchNorm2d(64, eps=0.001, momentum=0.03, affine=True, track_running_stats=True)\n              (act): SiLU(inplace=True)\n            )\n            (2): Conv2d(64, 64, kernel_size=(1, 1), stride=(1, 1))\n          )\n        )\n        (cv3): ModuleList(\n          (0): Sequential(\n            (0): Sequential(\n              (0): DWConv(\n                (conv): Conv2d(64, 64, kernel_size=(3, 3), stride=(1, 1), padding=(1, 1), groups=64, bias=False)\n                (bn): BatchNorm2d(64, eps=0.001, momentum=0.03, affine=True, track_running_stats=True)\n                (act): SiLU(inplace=True)\n              )\n              (1): Conv(\n                (conv): Conv2d(64, 64, kernel_size=(1, 1), stride=(1, 1), bias=False)\n                (bn): BatchNorm2d(64, eps=0.001, momentum=0.03, affine=True, track_running_stats=True)\n                (act): SiLU(inplace=True)\n              )\n            )\n            (1): Sequential(\n              (0): DWConv(\n                (conv): Conv2d(64, 64, kernel_size=(3, 3), stride=(1, 1), padding=(1, 1), groups=64, bias=False)\n                (bn): BatchNorm2d(64, eps=0.001, momentum=0.03, affine=True, track_running_stats=True)\n                (act): SiLU(inplace=True)\n              )\n              (1): Conv(\n                (conv): Conv2d(64, 64, kernel_size=(1, 1), stride=(1, 1), bias=False)\n                (bn): BatchNorm2d(64, eps=0.001, momentum=0.03, affine=True, track_running_stats=True)\n                (act): SiLU(inplace=True)\n              )\n            )\n            (2): Conv2d(64, 15, kernel_size=(1, 1), stride=(1, 1))\n          )\n          (1): Sequential(\n            (0): Sequential(\n              (0): DWConv(\n                (conv): Conv2d(128, 128, kernel_size=(3, 3), stride=(1, 1), padding=(1, 1), groups=128, bias=False)\n                (bn): BatchNorm2d(128, eps=0.001, momentum=0.03, affine=True, track_running_stats=True)\n                (act): SiLU(inplace=True)\n              )\n              (1): Conv(\n                (conv): Conv2d(128, 64, kernel_size=(1, 1), stride=(1, 1), bias=False)\n                (bn): BatchNorm2d(64, eps=0.001, momentum=0.03, affine=True, track_running_stats=True)\n                (act): SiLU(inplace=True)\n              )\n            )\n            (1): Sequential(\n              (0): DWConv(\n                (conv): Conv2d(64, 64, kernel_size=(3, 3), stride=(1, 1), padding=(1, 1), groups=64, bias=False)\n                (bn): BatchNorm2d(64, eps=0.001, momentum=0.03, affine=True, track_running_stats=True)\n                (act): SiLU(inplace=True)\n              )\n              (1): Conv(\n                (conv): Conv2d(64, 64, kernel_size=(1, 1), stride=(1, 1), bias=False)\n                (bn): BatchNorm2d(64, eps=0.001, momentum=0.03, affine=True, track_running_stats=True)\n                (act): SiLU(inplace=True)\n              )\n            )\n            (2): Conv2d(64, 15, kernel_size=(1, 1), stride=(1, 1))\n          )\n          (2): Sequential(\n            (0): Sequential(\n              (0): DWConv(\n                (conv): Conv2d(256, 256, kernel_size=(3, 3), stride=(1, 1), padding=(1, 1), groups=256, bias=False)\n                (bn): BatchNorm2d(256, eps=0.001, momentum=0.03, affine=True, track_running_stats=True)\n                (act): SiLU(inplace=True)\n              )\n              (1): Conv(\n                (conv): Conv2d(256, 64, kernel_size=(1, 1), stride=(1, 1), bias=False)\n                (bn): BatchNorm2d(64, eps=0.001, momentum=0.03, affine=True, track_running_stats=True)\n                (act): SiLU(inplace=True)\n              )\n            )\n            (1): Sequential(\n              (0): DWConv(\n                (conv): Conv2d(64, 64, kernel_size=(3, 3), stride=(1, 1), padding=(1, 1), groups=64, bias=False)\n                (bn): BatchNorm2d(64, eps=0.001, momentum=0.03, affine=True, track_running_stats=True)\n                (act): SiLU(inplace=True)\n              )\n              (1): Conv(\n                (conv): Conv2d(64, 64, kernel_size=(1, 1), stride=(1, 1), bias=False)\n                (bn): BatchNorm2d(64, eps=0.001, momentum=0.03, affine=True, track_running_stats=True)\n                (act): SiLU(inplace=True)\n              )\n            )\n            (2): Conv2d(64, 15, kernel_size=(1, 1), stride=(1, 1))\n          )\n        )\n        (dfl): DFL(\n          (conv): Conv2d(16, 1, kernel_size=(1, 1), stride=(1, 1), bias=False)\n        )\n        (cv4): ModuleList(\n          (0): Sequential(\n            (0): Conv(\n              (conv): Conv2d(64, 16, kernel_size=(3, 3), stride=(1, 1), padding=(1, 1), bias=False)\n              (bn): BatchNorm2d(16, eps=0.001, momentum=0.03, affine=True, track_running_stats=True)\n              (act): SiLU(inplace=True)\n            )\n            (1): Conv(\n              (conv): Conv2d(16, 16, kernel_size=(3, 3), stride=(1, 1), padding=(1, 1), bias=False)\n              (bn): BatchNorm2d(16, eps=0.001, momentum=0.03, affine=True, track_running_stats=True)\n              (act): SiLU(inplace=True)\n            )\n            (2): Conv2d(16, 1, kernel_size=(1, 1), stride=(1, 1))\n          )\n          (1): Sequential(\n            (0): Conv(\n              (conv): Conv2d(128, 16, kernel_size=(3, 3), stride=(1, 1), padding=(1, 1), bias=False)\n              (bn): BatchNorm2d(16, eps=0.001, momentum=0.03, affine=True, track_running_stats=True)\n              (act): SiLU(inplace=True)\n            )\n            (1): Conv(\n              (conv): Conv2d(16, 16, kernel_size=(3, 3), stride=(1, 1), padding=(1, 1), bias=False)\n              (bn): BatchNorm2d(16, eps=0.001, momentum=0.03, affine=True, track_running_stats=True)\n              (act): SiLU(inplace=True)\n            )\n            (2): Conv2d(16, 1, kernel_size=(1, 1), stride=(1, 1))\n          )\n          (2): Sequential(\n            (0): Conv(\n              (conv): Conv2d(256, 16, kernel_size=(3, 3), stride=(1, 1), padding=(1, 1), bias=False)\n              (bn): BatchNorm2d(16, eps=0.001, momentum=0.03, affine=True, track_running_stats=True)\n              (act): SiLU(inplace=True)\n            )\n            (1): Conv(\n              (conv): Conv2d(16, 16, kernel_size=(3, 3), stride=(1, 1), padding=(1, 1), bias=False)\n              (bn): BatchNorm2d(16, eps=0.001, momentum=0.03, affine=True, track_running_stats=True)\n              (act): SiLU(inplace=True)\n            )\n            (2): Conv2d(16, 1, kernel_size=(1, 1), stride=(1, 1))\n          )\n        )\n      )\n    )\n  )\n)\n\n\n\nfrom shapely.geometry import Polygon\n \ndef create_polygon_from_coordinates(coords):\n    \"\"\"Creating a Polygon object from the coordinates of the rotated bounding box.\"\"\"\n    return Polygon([(coords[i], coords[i+1]) for i in range(0, len(coords), 2)])\n \ndef calculate_iou_rotated_from_coords(
…
   def forward(self, x):\n        x = F.relu(self.conv1(x))\n        return F.relu(self.conv2(x))\nSubmodules assigned in this way will be registered, and will also have their parameters converted when you call :meth:to, etc.\n.. note:: As per the example above, an __init__() call to the parent class must be made before assignment on the child.\n:ivar training: Boolean represents whether this module is in training or evaluation mode. :vartype training: bool*\n\nmodel = Yolov1(split_size=7, num_boxes=2, num_classes=20)\nmodel\n\nYolov1(\n  (darknet): Sequential(\n    (0): CNNBlock(\n      (conv): Conv2d(3, 64, kernel_size=(7, 7), stride=(2, 2), padding=(3, 3), bias=False)\n      (batchnorm): BatchNorm2d(64, eps=1e-05, momentum=0.1, affine=True, track_running_stats=True)\n      (leakyrelu): LeakyReLU(negative_slope=0.1)\n    )\n    (1): MaxPool2d(kernel_size=(2, 2), stride=(2, 2), padding=0, dilation=1, ceil_mode=False)\n    (2): CNNBlock(\n      (conv): Conv2d(64, 192, kernel_size=(3, 3), stride=(1, 1), padding=(1, 1), bias=False)\n      (batchnorm): BatchNorm2d(192, eps=1e-05, momentum=0.1, affine=True, track_running_stats=True)\n      (leakyrelu): LeakyReLU(negative_slope=0.1)\n    )\n    (3): MaxPool2d(kernel_size=(2, 2), stride=(2, 2), padding=0, dilation=1, ceil_mode=False)\n    (4): CNNBlock(\n      (conv): Conv2d(192, 128, kernel_size=(1, 1), stride=(1, 1), bias=False)\n      (batchnorm): BatchNorm2d(128, eps=1e-05, momentum=0.1, affine=True, track_running_stats=True)\n      (leakyrelu): LeakyReLU(negative_slope=0.1)\n    )\n    (5): CNNBlock(\n      (conv): Conv2d(128, 256, kernel_size=(3, 3), stride=(1, 1), padding=(1, 1), bias=False)\n      (batchnorm): BatchNorm2d(256, eps=1e-05, momentum=0.1, affine=True, track_running_stats=True)\n      (leakyrelu): LeakyReLU(negative_slope=0.1)\n    )\n    (6): CNNBlock(\n      (conv): Conv2d(256, 256, kernel_size=(1, 1), stride=(1, 1), bias=False)\n      (batchnorm): BatchNorm2d(256, eps=1e-05, momentum=0.1, affine=True, track_running_stats=True)\n      (leakyrelu): LeakyReLU(negative_slope=0.1)\n    )\n    (7): CNNBlock(\n      (conv): Conv2d(256, 512, kernel_size=(3, 3), stride=(1, 1), padding=(1, 1), bias=False)\n      (batchnorm): BatchNorm2d(512, eps=1e-05, momentum=0.1, affine=True, track_running_stats=True)\n      (leakyrelu): LeakyReLU(negative_slope=0.1)\n    )\n    (8): MaxPool2d(kernel_size=(2, 2), stride=(2, 2), padding=0, dilation=1, ceil_mode=False)\n    (9): CNNBlock(\n      (conv): Conv2d(512, 256, kernel_size=(1, 1), stride=(1, 1), bias=False)\n      (batchnorm): BatchNorm2d(256, eps=1e-05, momentum=0.1, affine=True, track_running_stats=True)\n      (leakyrelu): LeakyReLU(negative_slope=0.1)\n    )\n    (10): CNNBlock(\n      (conv): Conv2d(256, 512, kernel_size=(3, 3), stride=(1, 1), padding=(1, 1), bias=False)\n      (batchnorm): BatchNorm2d(512, eps=1e-05, momentum=0.1, affine=True, track_running_stats=True)\n      (leakyrelu): LeakyReLU(negative_slope=0.1)\n    )\n    (11): CNNBlock(\n      (conv): Conv2d(512, 256, kernel_size=(1, 1), stride=(1, 1), bias=False)\n      (batchnorm): BatchNorm2d(256, eps=1e-05, momentum=0.1, affine=True, track_running_stats=True)\n      (leakyrelu): LeakyReLU(negative_slope=0.1)\n    )\n    (12): CNNBlock(\n      (conv): Conv2d(256, 512, kernel_size=(3, 3), stride=(1, 1), padding=(1, 1), bias=False)\n      (batchnorm): BatchNorm2d(512, eps=1e-05, momentum=0.1, affine=True, track_running_stats=True)\n      (leakyrelu): LeakyReLU(negative_slope=0.1)\n    )\n    (13): CNNBlock(\n      (conv): Conv2d(512, 256, kernel_size=(1, 1), stride=(1, 1), bias=False)\n      (batchnorm): BatchNorm2d(256, eps=1e-05, momentum=0.1, affine=True, track_running_stats=True)\n      (leakyrelu): LeakyReLU(negative_slope=0.1)\n    )\n    (14): CNNBlock(\n      (conv): Conv2d(256, 512, kernel_size=(3, 3), stride=(1, 1), padding=(1, 1), bias=False)\n      (batchnorm): BatchNorm2d(512, eps=1e-05, momentum=0.1, affine=True, track_running_stats=True)\n      (leakyrelu): LeakyReLU(negative_slope=0.1)\n    )\n    (15): CNNBlock(\n      (conv): Conv2d(512, 256, kernel_size=(1, 1), stride=(1, 1), bias=False)\n      (batchnorm): BatchNorm2d(256, eps=1e-05, momentum=0.1, affine=True, track_running_stats=True)\n      (leakyrelu): LeakyReLU(negative_slope=0.1)\n    )\n    (16): CNNBlock(\n      (conv): Conv2d(256, 512, kernel_size=(3, 3), stride=(1, 1), padding=(1, 1), bias=False)\n      (batchnorm): BatchNorm2d(512, eps=1e-05, momentum=0.1, affine=True, track_running_stats=True)\n      (leakyrelu): LeakyReLU(negative_slope=0.1)\n    )\n    (17): CNNBlock(\n      (conv): Conv2d(512, 512, kernel_size=(1, 1), stride=(1, 1), bias=False)\n      (batchnorm): BatchNorm2d(512, eps=1e-05, momentum=0.1, affine=True, track_running_stats=True)\n      (leakyrelu): LeakyReLU(negative_slope=0.1)\n    )\n    (18): CNNBlock(\n      (conv): Conv2d(512, 1024, kernel_size=(3, 3), stride=(1, 1), padding=(1, 1), bias=False)\n      (batchnorm): BatchNorm2d(1024, eps=1e-05, momentum=0.1, affine=True, track_running_stats=True)\n      (leakyrelu): LeakyReLU(negative_slope=0.1)\n    )\n    (19): MaxPool2d(kernel_size=(2, 2), stride=(2, 2), padding=0, dilation=1, ceil_mode=False)\n    (20): CNNBlock(\n      (conv): Conv2d(1024, 512, kernel_size=(1, 1), stride=(1, 1), bias=False)\n      (batchnorm): BatchNorm2d(512, eps=1e-05, momentum=0.1, affine=True, track_running_stats=True)\n      (leakyrelu): LeakyReLU(negative_slope=0.1)\n    )\n    (21): CNNBlock(\n      (conv): Conv2d(512, 1024, kernel_size=(3, 3), stride=(1, 1), padding=(1, 1), bias=False)\n      (batchnorm): BatchNorm2d(1024, eps=1e-05, momentum=0.1, affine=True, track_running_stats=True)\n      (leakyrelu): LeakyReLU(negative_slope=0.1)\n    )\n    (22): CNNBlock(\n      (conv): Conv2d(1024, 512, kernel_size=(1, 1), stride=(1, 1), bias=False)\n      (batchnorm): BatchNorm2d(512, eps=1e-05, momentum=0.1, affine=True, track_running_stats=True)\n      (leakyrelu): LeakyReLU(negative_slope=0.1)\n    )\n    (23): CNNBlock(\n      (conv): Conv2d(512, 1024, kernel_size=(3, 3), stride=(1, 1), padding=(1, 1), bias=False)\n      (batchnorm): BatchNorm2d(1024, eps=1e-05, momentum=0.1, affine=True, track_running_stats=True)\n      (leakyrelu): LeakyReLU(negative_slope=0.1)\n    )\n    (24): CNNBlock(\n      (conv): Conv2d(1024, 1024, kernel_size=(3, 3), stride=(1, 1), padding=(1, 1), bias=False)\n      (batchnorm): BatchNorm2d(1024, eps=1e-05, momentum=0.1, affine=True, track_running_stats=True)\n      (leakyrelu): LeakyReLU(negative_slope=0.1)\n    )\n    (25): CNNBlock(\n      (conv): Conv2d(1024, 1024, kernel_size=(3, 3), stride=(2, 2), padding=(1, 1), bias=False)\n      (batchnorm): BatchNorm2d(1024, eps=1e-05, momentum=0.1, affine=True, track_running_stats=True)\n      (leakyrelu): LeakyReLU(negative_slope=0.1)\n    )\n    (26): CNNBlock(\n      (conv): Conv2d(1024, 1024, kernel_size=(3, 3), stride=(1, 1), padding=(1, 1), bias=False)\n      (batchnorm): BatchNorm2d(1024, eps=1e-05, momentum=0.1, affine=True, track_running_stats=True)\n      (leakyrelu): LeakyReLU(negative_slope=0.1)\n    )\n    (27): CNNBlock(\n      (conv): Conv2d(1024, 1024, kernel_size=(3, 3), stride=(1, 1), padding=(1, 1), bias=False)\n      (batchnorm): BatchNorm2d(1024, eps=1e-05, momentum=0.1, affine=True, track_running_stats=True)\n      (leakyrelu): LeakyReLU(negative_slope=0.1)\n    )\n  )\n  (fcs): Sequential(\n    (0): Flatten(start_dim=1, end_dim=-1)\n    (1): Linear(in_features=50176, out_features=496, bias=True)\n    (2): Dropout(p=0.0, inplace=False)\n    (3): LeakyReLU(negative_slope=0.1)\n    (4): Linear(in_features=496, out_features=1470, bias=True)\n  )\n)",
    "crumbs": [
      "Yolo v1"
    ]
  },
  {
    "objectID": "yolov1.html#loss-function",
    "href": "yolov1.html#loss-function",
    "title": "Yolo v1",
    "section": "Loss function",
    "text": "Loss function\n\nsource\n\nYoloLoss\n\n YoloLoss (S=7, B=2, C=20)\n\nCalculate the loss for yolo (v1) model\n\nS=7; B=2; C=20\nlambda_noobj = 0.5\nlambda_coord = 5\npredictions = torch.randn(1, 7, 7, 30)\ntarget = torch.randn(1, 7, 7, 25)\n\npredictions = predictions.reshape(-1, S, S, C + B * 5)  # (bs, S, S, 30)\npredictions.shape\n\ntorch.Size([1, 7, 7, 30])",
…
    "text": "Learner\n\nfrom torchvision.io.image import decode_image\nfrom torchvision.models.detection import fasterrcnn_resnet50_fpn_v2, FasterRCNN_ResNet50_FPN_V2_Weights\nfrom torchvision.transforms.functional import to_pil_image\n\nweights = FasterRCNN_ResNet50_FPN_V2_Weights.DEFAULT\nmodel = fasterrcnn_resnet50_fpn_v2(weights=weights, box_score_thresh=0.9)\nmodel\n\nFasterRCNN(\n  (transform): GeneralizedRCNNTransform(\n      Normalize(mean=[0.485, 0.456, 0.406], std=[0.229, 0.224, 0.225])\n      Resize(min_size=(800,), max_size=1333, mode='bilinear')\n  )\n  (backbone): BackboneWithFPN(\n    (body): IntermediateLayerGetter(\n      (conv1): Conv2d(3, 64, kernel_size=(7, 7), stride=(2, 2), padding=(3, 3), bias=False)\n      (bn1): BatchNorm2d(64, eps=1e-05, momentum=0.1, affine=True, track_running_stats=True)\n      (relu): ReLU(inplace=True)\n      (maxpool): MaxPool2d(kernel_size=3, stride=2, padding=1, dilation=1, ceil_mode=False)\n      (layer1): Sequential(\n        (0): Bottleneck(\n          (conv1): Conv2d(64, 64, kernel_size=(1, 1), stride=(1, 1), bias=False)\n          (bn1): BatchNorm2d(64, eps=1e-05, momentum=0.1, affine=True, track_running_stats=True)\n          (conv2): Conv2d(64, 64, kernel_size=(3, 3), stride=(1, 1), padding=(1, 1), bias=False)\n          (bn2): BatchNorm2d(64, eps=1e-05, momentum=0.1, affine=True, track_running_stats=True)\n          (conv3): Conv2d(64, 256, kernel_size=(1, 1), stride=(1, 1), bias=False)\n          (bn3): BatchNorm2d(256, eps=1e-05, momentum=0.1, affine=True, track_running_stats=True)\n          (relu): ReLU(inplace=True)\n          (downsample): Sequential(\n            (0): Conv2d(64, 256, kernel_size=(1, 1), stride=(1, 1), bias=False)\n            (1): BatchNorm2d(256, eps=1e-05, momentum=0.1, affine=True, track_running_stats=True)\n          )\n        )\n        (1): Bottleneck(\n          (conv1): Conv2d(256, 64, kernel_size=(1, 1), stride=(1, 1), bias=False)\n          (bn1): BatchNorm2d(64, eps=1e-05, momentum=0.1, affine=True, track_running_stats=True)\n          (conv2): Conv2d(64, 64, kernel_size=(3, 3), stride=(1, 1), padding=(1, 1), bias=False)\n          (bn2): BatchNorm2d(64, eps=1e-05, momentum=0.1, affine=True, track_running_stats=True)\n          (conv3): Conv2d(64, 256, kernel_size=(1, 1), stride=(1, 1), bias=False)\n          (bn3): BatchNorm2d(256, eps=1e-05, momentum=0.1, affine=True, track_running_stats=True)\n          (relu): ReLU(inplace=True)\n        )\n        (2): Bottleneck(\n          (conv1): Conv2d(256, 64, kernel_size=(1, 1), stride=(1, 1), bias=False)\n          (bn1): BatchNorm2d(64, eps=1e-05, momentum=0.1, affine=True, track_running_stats=True)\n          (conv2): Conv2d(64, 64, kernel_size=(3, 3), stride=(1, 1), padding=(1, 1), bias=False)\n          (bn2): BatchNorm2d(64, eps=1e-05, momentum=0.1, affine=True, track_running_stats=True)\n          (conv3): Conv2d(64, 256, kernel_size=(1, 1), stride=(1, 1), bias=False)\n          (bn3): BatchNorm2d(256, eps=1e-05, momentum=0.1, affine=True, track_running_stats=True)\n          (relu): ReLU(inplace=True)\n        )\n      )\n      (layer2): Sequential(\n        (0): Bottleneck(\n          (conv1): Conv2d(256, 128, kernel_size=(1, 1), stride=(1, 1), bias=False)\n          (bn1): BatchNorm2d(128, eps=1e-05, momentum=0.1, affine=True, track_running_stats=True)\n          (conv2): Conv2d(128, 128, kernel_size=(3, 3), stride=(2, 2), padding=(1, 1), bias=False)\n          (bn2): BatchNorm2d(128, eps=1e-05, momentum=0.1, affine=True, track_running_stats=True)\n          (conv3): Conv2d(128, 512, kernel_size=(1, 1), stride=(1, 1), bias=False)\n          (bn3): BatchNorm2d(512, eps=1e-05, momentum=0.1, affine=True, track_running_stats=True)\n          (relu): ReLU(inplace=True)\n          (downsample): Sequential(\n            (0): Conv2d(256, 512, kernel_size=(1, 1), stride=(2, 2), bias=False)\n            (1): BatchNorm2d(512, eps=1e-05, momentum=0.1, affine=True, track_running_stats=True)\n          )\n        )\n        (1): Bottleneck(\n          (conv1): Conv2d(512, 128, kernel_size=(1, 1), stride=(1, 1), bias=False)\n          (bn1): BatchNorm2d(128, eps=1e-05, momentum=0.1, affine=True, track_running_stats=True)\n          (conv2): Conv2d(128, 128, kernel_size=(3, 3), stride=(1, 1), padding=(1, 1), bias=False)\n          (bn2): BatchNorm2d(128, eps=1e-05, momentum=0.1, affine=True, track_running_stats=True)\n          (conv3): Conv2d(128, 512, kernel_size=(1, 1), stride=(1, 1), bias=False)\n          (bn3): BatchNorm2d(512, eps=1e-05, momentum=0.1, affine=True, track_running_stats=True)\n          (relu): ReLU(inplace=True)\n        )\n        (2): Bottleneck(\n          (conv1): Conv2d(512, 128, kernel_size=(1, 1), stride=(1, 1), bias=False)\n          (bn1): BatchNorm2d(128, eps=1e-05, momentum=0.1, affine=True, track_running_stats=True)\n          (conv2): Conv2d(128, 128, kernel_size=(3, 3), stride=(1, 1), padding=(1, 1), bias=False)\n          (bn2): BatchNorm2d(128, eps=1e-05, momentum=0.1, affine=True, track_running_stats=True)\n          (conv3): Conv2d(128, 512, kernel_size=(1, 1), stride=(1, 1), bias=False)\n          (bn3): BatchNorm2d(512, eps=1e-05, momentum=0.1, affine=True, track_running_stats=True)\n          (relu): ReLU(inplace=True)\n        )\n        (3): Bottleneck(\n          (conv1): Conv2d(512, 128, kernel_size=(1, 1), stride=(1, 1), bias=False)\n          (bn1): BatchNorm2d(128, eps=1e-05, momentum=0.1, affine=True, track_running_stats=True)\n          (conv2): Conv2d(128, 128, kernel_size=(3, 3), stride=(1, 1), padding=(1, 1), bias=False)\n          (bn2): BatchNorm2d(128, eps=1e-05, momentum=0.1, affine=True, track_running_stats=True)\n          (conv3): Conv2d(128, 512, kernel_size=(1, 1), stride=(1, 1), bias=False)\n          (bn3): BatchNorm2d(512, eps=1e-05, momentum=0.1, affine=True, track_running_stats=True)\n          (relu): ReLU(inplace=True)\n        )\n      )\n      (layer3): Sequential(\n        (0): Bottleneck(\n          (conv1): Conv2d(512, 256, kernel_size=(1, 1), stride=(1, 1), bias=False)\n          (bn1): BatchNorm2d(256, eps=1e-05, momentum=0.1, affine=True, track_running_stats=True)\n          (conv2): Conv2d(256, 256, kernel_size=(3, 3), stride=(2, 2), padding=(1, 1), bias=False)\n          (bn2): BatchNorm2d(256, eps=1e-05, momentum=0.1, affine=True, track_running_stats=True)\n          (conv3): Conv2d(256, 1024, kernel_size=(1, 1), stride=(1, 1), bias=False)\n          (bn3): BatchNorm2d(1024, eps=1e-05, momentum=0.1, affine=True, track_running_stats=True)\n          (relu): ReLU(inplace=True)\n          (downsample): Sequential(\n            (0): Conv2d(512, 1024, kernel_size=(1, 1), stride=(2, 2), bias=False)\n            (1): BatchNorm2d(1024, eps=1e-05, momentum=0.1, affine=True, track_running_stats=True)\n          )\n        )\n        (1): Bottleneck(\n          (conv1): Conv2d(1024, 256, kernel_size=(1, 1), stride=(1, 1), bias=False)\n          (bn1): BatchNorm2d(256, eps=1e-05, momentum=0.1, affine=True, track_running_stats=True)\n          (conv2): Conv2d(256, 256, kernel_size=(3, 3), stride=(1, 1), padding=(1, 1), bias=False)\n          (bn2): BatchNorm2d(256, eps=1e-05, momentum=0.1, affine=True, track_running_stats=True)\n          (conv3): Conv2d(256, 1024, kernel_size=(1, 1), stride=(1, 1), bias=False)\n          (bn3): BatchNorm2d(1024, eps=1e-05, momentum=0.1, affine=True, track_running_stats=True)\n          (relu): ReLU(inplace=True)\n        )\n        (2): Bottleneck(\n          (conv1): Conv2d(1024, 256, kernel_size=(1, 1), stride=(1, 1), bias=False)\n          (bn1): BatchNorm2d(256, eps=1e-05, momentum=0.1, affine=True, track_running_stats=True)\n          (conv2): Conv2d(256, 256, kernel_size=(3, 3), stride=(1, 1), padding=(1, 1), bias=False)\n          (bn2): BatchNorm2d(256, eps=1e-05, momentum=0.1, affine=True, track_running_stats=True)\n          (conv3): Conv2d(256, 1024, kernel_size=(1, 1), stride=(1, 1), bias=False)\n          (bn3): BatchNorm2d(1024, eps=1e-05, momentum=0.1, affine=True, track_running_stats=True)\n          (relu): ReLU(inplace=True)\n        )\n        (3): Bottleneck(\n          (conv1): Conv2d(1024, 256, kernel_size=(1, 1), stride=(1, 1), bias=False)\n          (bn1): BatchNorm2d(256, eps=1e-05, momentum=0.1, affine=True, track_running_stats=True)\n          (conv2): Conv2d(256, 256, kernel_size=(3, 3), stride=(1, 1), padding=(1, 1), bias=False)\n          (bn2): BatchNorm2d(256, eps=1e-05, momentum=0.1, affine=True, track_running_stats=True)\n          (conv3): Conv2d(256, 1024, kernel_size=(1, 1), stride=(1, 1), bias=False)\n          (bn3): BatchNorm2d(1024, eps=1e-05, momentum=0.1, affine=True, track_running_stats=True)\n          (relu): ReLU(inplace=True)\n        )\n        (4): Bottleneck(\n          (conv1): Conv2d(1024, 256, kernel_size=(1, 1), stride=(1, 1), bias=False)\n          (bn1): BatchNorm2d(256, eps=1e-05, momentum=0.1, affine=True, track_running_stats=True)\n          (conv2): Conv2d(256, 256, kernel_size=(3, 3), stride=(1, 1), padding=(1, 1), bias=False)\n          (bn2): BatchNorm2d(256, eps=1e-05, momentum=0.1, affine=True, track_running_stats=True)\n          (conv3): Conv2d(256, 1024, kernel_size=(1, 1), stride=(1, 1), bias=False)\n          (bn3): BatchNorm2d(1024, eps=1e-05, momentum=0.1, affine=True, track_running_stats=True)\n          (relu): ReLU(inplace=True)\n        )\n        (5): Bottleneck(\n          (conv1): Conv2d(1024, 256, kernel_size=(1, 1), stride=(1, 1), bias=False)\n          (bn1): BatchNorm2d(256, eps=1e-05, momentum=0.1, affine=True, track_running_stats=True)\n          (conv2): Conv2d(256, 256, kernel_size=(3, 3), stride=(1, 1), padding=(1, 1), bias=False)\n          (bn2): BatchNorm2d(256, eps=1e-05, momentum=0.1, affine=True, track_running_stats=True)\n          (conv3): Conv2d(256, 1024, kernel_size=(1, 1), stride=(1, 1), bias=False)\n          (bn3): BatchNorm2d(1024, eps=1e-05, momentum=0.1, affine=True, track_running_stats=True)\n          (relu): ReLU(inplace=True)\n        )\n      )\n      (layer4): Sequential(\n        (0): Bottleneck(\n          (conv1): Conv2d(1024, 512, kernel_size=(1, 1), stride=(1, 1), bias=False)\n          (bn1): BatchNorm2d(512, eps=1e-05, momentum=0.1, affine=True, track_running_stats=True)\n          (conv2): Conv2d(512, 512, kernel_size=(3, 3), stride=(2, 2), padding=(1, 1), bias=False)\n          (bn2): BatchNorm2d(512, eps=1e-05, momentum=0.1, affine=True, track_running_stats=True)\n          (conv3): Conv2d(512, 2048, kernel_size=(1, 1), stride=(1, 1), bias=False)\n          (bn3): BatchNorm2d(2048, eps=1e-05, momentum=0.1, affine=True, track_running_stats=True)\n          (relu): ReLU(inplace=True)\n          (downsample): Sequential(\n            (0): Conv2d(1024, 2048, kernel_size=(1, 1), stride=(2, 2), bias=False)\n            (1): BatchNorm2d(2048, eps=1e-05, momentum=0.1, affine=True, track_running_stats=True)\n          )\n        )\n        (1): Bottleneck(\n          (conv1): Conv2d(2048, 512, kernel_size=(1, 1), stride=(1, 1), bias=False)\n          (bn1): BatchNorm2d(512, eps=1e-05, momentum=0.1, affine=True, track_running_stats=True)\n          (conv2): Conv2d(512, 512, kernel_size=(3, 3), stride=(1, 1), padding=(1, 1), bias=False)\n          (bn2): BatchNorm2d(512, eps=1e-05, momentum=0.1, affine=True, track_running_stats=True)\n          (conv3): Conv2d(512, 2048, kernel_size=(1, 1), stride=(1, 1), bias=False)\n          (bn3): BatchNorm2d(2048, eps=1e-05, momentum=0.1, affine=True, track_running_stats=True)\n          (relu): ReLU(inplace=True)\n        )\n        (2): Bottleneck(\n          (conv1): Conv2d(2048, 512, kernel_size=(1, 1), stride=(1, 1), bias=False)\n          (bn1): BatchNorm2d(512, eps=1e-05, momentum=0.1, affine=True, track_running_stats=True)\n          (conv2): Conv2d(512, 512, kernel_size=(3, 3), stride=(1, 1), padding=(1, 1), bias=False)\n          (bn2): BatchNorm2d(512, eps=1e-05, momentum=0.1, affine=True, track_running_stats=True)\n          (conv3): Conv2d(512, 2048, kernel_size=(1, 1), stride=(1, 1), bias=False)\n          (bn3): BatchNorm2d(2048, eps=1e-05, momentum=0.1, affine=True, track_running_stats=True)\n          (relu): ReLU(inplace=True)\n        )\n      )\n    )\n    (fpn): FeaturePyramidNetwork(\n      (inner_blocks): ModuleList(\n        (0): Conv2dNormActivation(\n          (0): Conv2d(256, 256, kernel_size=(1, 1), stride=(1, 1), bias=False)\n          (1): BatchNorm2d(256, eps=1e-05, momentum=0.1, affine=True, track_running_stats=True)\n        )\n        (1): Conv2dNormActivation(\n          (0): Conv2d(512, 256, kernel_size=(1, 1), stride=(1, 1), bias=False)\n          (1): BatchNorm2d(256, eps=1e-05, momentum=0.1, affine=True, track_running_stats=True)\n        )\n        (2): Conv2dNormActivation(\n          (0): Conv2d(1024, 256, kernel_size=(1, 1), stride=(1, 1), bias=False)\n          (1): BatchNorm2d(256, eps=1e-05, momentum=0.1, affine=True, track_running_stats=True)\n        )\n        (3): Conv2dNormActivation(\n          (0): Conv2d(2048, 256, kernel_size=(1, 1), stride=(1, 1), bias=False)\n          (1): BatchNorm2d(256, eps=1e-05, momentum=0.1, affine=True, track_running_stats=True)\n        )\n      )\n      (layer_blocks): ModuleList(\n        (0-3): 4 x Conv2dNormActivation(\n          (0): Conv2d(256, 256, kernel_size=(3, 3), stride=(1, 1), padding=(1, 1), bias=False)\n          (1): BatchNorm2d(256, eps=1e-05, momentum=0.1, affine=True, track_running_stats=True)\n        )\n      )\n      (extra_blocks): LastLevelMaxPool()\n    )\n  )\n  (rpn): RegionProposalNetwork(\n    (anchor_generator): AnchorGenerator()\n    (head): RPNHead(\n      (conv): Sequential(\n        (0): Conv2dNormActivation(\n          (0): Conv2d(256, 256, kernel_size=(3, 3), stride=(1, 1), padding=(1, 1))\n          (1): ReLU(inplace=True)\n        )\n        (1): Conv2dNormActivation(\n          (0): Conv2d(256, 256, kernel_size=(3, 3), stride=(1, 1), padding=(1, 1))\n          (1): ReLU(inplace=True)\n        )\n      )\n      (cls_logits): Conv2d(256, 3, kernel_size=(1, 1), stride=(1, 1))\n      (bbox_pred): Conv2d(256, 12, kernel_size=(1, 1), stride=(1, 1))\n    )\n  )\n  (roi_heads): RoIHeads(\n    (box_roi_pool): MultiScaleRoIAlign(featmap_names=['0', '1', '2', '3'], output_size=(7, 7), sampling_ratio=2)\n    (box_head): FastRCNNConvFCHead(\n      (0): Conv2dNormActivation(\n        (0): Conv2d(256, 256, kernel_size=(3, 3), stride=(1, 1), padding=(1, 1), bias=False)\n        (1): BatchNorm2d(256, eps=1e-05, momentum=0.1, affine=True, track_running_stats=True)\n        (2): ReLU(inplace=True)\n      )\n      (1): Conv2dNormActivation(\n        (0): Conv2d(256, 256, kernel_size=(3, 3), stride=(1, 1), padding=(1, 1), bias=False)\n        (1): BatchNorm2d(256, eps=1e-05, momentum=0.1, affine=True, track_running_stats=True)\n        (2): ReLU(inplace=True)\n      )\n      (2): Conv2dNormActivation(\n        (0): Conv2d(256, 256, kernel_size=(3, 3), stride=(1, 1), padding=(1, 1), bias=False)\n        (1): BatchNorm2d(256, eps=1e-05, momentum=0.1, affine=True, track_running_stats=True)\n        (2): ReLU(inplace=True)\n      )\n      (3): Conv2dNormActivation(\n        (0): Conv2d(256, 256, kernel_size=(3, 3), stride=(1, 1), padding=(1, 1), bias=False)\n        (1): BatchNorm2d(256, eps=1e-05, momentum=0.1, affine=True, track_running_stats=True)\n        (2): ReLU(inplace=True)\n      )\n      (4): Flatten(start_dim=1, end_dim=-1)\n      (5): Linear(in_features=12544, out_features=1024, bias=True)\n      (6): ReLU(inplace=True)\n    )\n    (box_predictor): FastRCNNPredictor(\n      (cls_score): Linear(in_features=1024, out_features=91, bias=True)\n      (bbox_pred): Linear(in_features=1024, out_features=364, bias=True)\n    )\n  )\n)\n\n\n\n# Loss function from pytorch https://github.dev/pytorch/vision/tree/main/torchvision\ndef fastrcnn_loss(class_logits, box_regression, labels, regression_targets):\n    # type: (Tensor, Tensor, List[Tensor], List[Tensor]) -&gt; Tuple[Tensor, Tensor]\n    \"\"\"\n    Computes the loss for Faster R-CNN.\n\n    Args:\n        class_l
…
